model/model.npz (npz, 31196 bytes, 2 tensors)

bias f8 []
0	0x0000000000000000	0.0

weights f8 [768, 5]
0	0xbff3cb22f24c42ea	-1.2370938744317592
1	0x3fecc591b953f4c5	0.8991173381506533
2	0xc00f3c12091b52b6	-3.9043312751258226
3	0x3feb14c80c134d39	0.8462867961738204
4	0xbfe219bbefadc6ef	-0.5656413727976694
5	0xc003e3691630f3fa	-2.4860402806939392
6	0xbfcfc608af4d9205	-0.2482310157748914
7	0x3ff1ad80e4c5c215	1.1048592506814476
8	0x4003402c4e84c0e0	2.4063345083487633
9	0x3fd2d24b7d437b9d	0.2940853808667557
10	0x3fd02d21af016313	0.2527546128308568
11	0xbff123ed07699c61	-1.0712709703018606
12	0xc00519b3b784ca51	-2.637549813976229
13	0x4008cdd506995185	3.1005039706744264
14	0xbfd52ddf365656d6	-0.33092479997990887
15	0xbff64ac146a7810f	-1.3932507286008933
16	0xbff46e3d9e107ca5	-1.2769142317190838
17	0x3ffbf3a3a28042f2	1.7469822261520531
18	0x4004acd978a8703f	2.5843991686251964
19	0xbfe3d8c987216f8b	-0.6202132834691708
20	0xc0009944a662acbb	-2.074837970625223
21	0xbff8b684dde4cff8	-1.54456030537858
22	0x3fd1c30921a57742	0.27752903257156813
23	0x3ffd1f182ac96c2d	1.8200914069518703
24	0x3fe303653d1759f5	0.5941644852817364
25	0xbff5fa5c26f19082	-1.3736230393633666
26	0x3fc8924691189dc1	0.19196397862218187
27	0xbfd29da67e659768	-0.29087221473161273
28	0x3ff998b2bf03eacb	1.5997798406157695
29	0x3ff9799d765f5b66	1.5921911834645583
30	0x3fea22c1912579a2	0.8167426905527473
31	0x3ff1e48f4566d842	1.1183006964688649
32	0xbfebe3331c03e184	-0.87148433181487
33	0x40042045a09bca76	2.5157578036826704
34	0x3ff497934a85b6c4	1.2870057021167876
35	0xbfb92c9521c93840	-0.09833652567724105
36	0xc000d024710b5faf	-2.101632006797409
37	0xbff9e363f10814e6	-1.6180152335448894
38	0x3ffa31e98702e1f7	1.6371855996968614
39	0x3fd11f3e85547250	0.2675319959687714
40	0xc008a26c9c6fe6dc	-3.0793087216996877
41	0x3fd5e4e1cf945fe1	0.3420948531288542
42	0xbff89e0094db0970	-1.53857477328037
43	0x4004ca813966769b	2.5988792881388014
44	0x3ff7a4c48c0ec703	1.4777265044216967
45	0xbfeb0c81fc666c09	-0.845276825875204
46	0x3fc9484506cba8fb	0.19751799423040226
47	0xc00955b7c674aef2	-3.166854429660696
48	0x40081c29c52cb190	3.013751545359078
49	0x3ff2bb9fa8023d60	1.1708065569726713
50	0xc000e9c67abf8afb	-2.1141481008247616
51	0xbffb6d0616ed39fc	-1.714117135579385
52	0xc004153b7c7ebc87	-2.5103673673798457
53	0x400332a784af96e0	2.3997335783086413
54	0x3ffca462ec5ff131	1.7901334031476603
55	0xbfee44894cdcfcf5	-0.9458662511096053
56	0xbfc5013b7f68e461	-0.1641001102559896
57	0xbfd84dd364e133ec	-0.379750107302981
58	0x4007edc79e249c5a	2.991103396885177
59	0x40017b2764b747c1	2.185133730738898
60	0xc0036b4344df32bd	-2.4273743992438015
61	0x3ff709bfc27312ba	1.4398801418002862
62	0xbffe31cd24c5fe41	-1.887158530851494
63	0x3fcdbbb78aa5a7cf	0.23229116697194604
64	0x3ff424448f4c411c	1.258854446179675
65	0xc0009760e92a4140	-2.073915311433808
66	0x3fe857939e423bfc	0.7606905070296075
67	0x3fe55278506c09d0	0.6663171358816786
68	0x3fef75791758175b	0.9830899673404291
69	0xbfd9b2b8b68b63b7	-0.40153329683885935
70	0xc00372ab4a53c975	-2.430990772897696
71	0x3fc19837897785a6	0.13745779239893102
72	0xbff6c562eb275706	-1.4231900392236994
73	0x40014a8b66f93b3b	2.1613987011727693
74	0xbfedd6dccb23cbea	-0.9324783294272241
75	0x3fb919eefa105957	0.09805196385454927
76	0x3fea273663943a29	0.8172866768744075
77	0xc006752ae2a8fd15	-2.8072107036420086
78	0x3ff824147a9468b1	1.508808592631379
79	0x3fd8da537da045c1	0.38832556980295513
80	0xc00025f19b49daa6	-2.0185272342599374
81	0x4000645fe432d203	2.0490110233315604
82	0xbfe9cc0fdc4a882f	-0.8061599066315973
83	0x3ffb4a490563da24	1.7056360445545886
84	0xbfd6a756f961ba33	-0.3539636073464038
85	0xc00cf124fe8d7bf2	-3.617746342365984
86	0xbfe600748218c1c5	-0.6875555554343512
87	0xc00286f99a78286f	-2.3159057681960387
88	0x4001a1e4e2449848	2.204049842565869
89	0xbfe94922b51a61d7	-0.7901776826066066
90	0x3fc632d2d46e732b	0.17342601177815573
91	0x3fc9ba6dbe769111	0.20100185203512713
92	0x3fd8cde48475248c	0.3875666898280279
93	0x3ff305694f498bdf	1.1888211342963968
94	0x3ff2d55e1fa03212	1.177091716325894
95	0xc005fbdea75ffa37	-2.747983272186754
96	0x3ff127b3e10cd2e0	1.0721930304545637
97	0xc00184601377dd21	-2.1896363755182766
98	0x40002ca0e8dea942	2.0217912857962412
99	0xbfd913dc4ee22ca5	-0.3918371935221308
100	0xc00180f638c42c8c	-2.1879696307056005
101	0x3ff6004e29969178	1.3750745415246381
102	0x3ff16035f08fbd9b	1.0859889409001429
103	0x4005c2dbc41fc77b	2.72014573308928
104	0xbfed7fdd4ec9ebbc	-0.921858457454952
105	0xc004d203e8af04ee	-2.6025465181743277
106	0xbfdd9c6cba664430	-0.4626724071795847
107	0xc0075a0419d2a140	-2.9189531342891826
108	0x4010719ed87ba187	4.110957510515056
109	0xbfd9a4a3cc5d15c5	-0.40067381818184017
110	0xbff75bb65a186927	-1.459890701231936
111	0x3ff06d6bbf6d41b0	1.0267140843971951
112	0x3fad2ade8c0d76df	0.0569676919901505
113	0x3feb915a9e995892	0.8614934060704107
114	0xbfe37c3f848f9693	-0.608917006404868
115	0xbffe9ee10ad0c790	-1.9137888357622366
116	0xbfd320ada450d2ec	-0.2988695244451225
117	0x3fc87e95c409fabf	0.19136306831565794
118	0x40001c676ec4a1db	2.013869157195797
119	0xbfdc2757d772547b	-0.4399013141604155
120	0xbff451effce9adf5	-1.2700042609602609
121	0x3fb05bac4abd655d	0.06389881920531111
122	0xbffb2dce983497e1	-1.698683352043638
123	0x400f156c61d7e7dc	3.8854606288923446
124	0xbfe325866d0b32e1	-0.5983307008515021
125	0xbff2ed53a2e64864	-1.1829410899413455
126	0xbfe88b67dbf837d7	-0.7670172973901072
127	0xbfefce28e058812a	-0.9939159757377969
128	0x3fea219ae56d4423	0.8166021805756184
129	0x40073836ff301a72	2.9024486481242144
130	0xbfe226285d1cb7bd	-0.567157918796276
131	0xbff1d2a12a71da9d	-1.113923230933927
132	0x4001923bf5d66a0c	2.196403427701858
133	0x400d625e74fbfed9	3.673031724872868
134	0xbff72f1b8271ecd3	-1.44900084452711
135	0xbff80ccfca48aa0c	-1.5031278516495403
136	0xbffb0c4871b5fb29	-1.6904987756567584
137	0x4000439536a29705	2.0329994457596308
138	0x4002ef6243d4049d	2.366886644275452
139	0x3ffb9eded461cd68	1.7262867256329972
140	0xc007a5d50be19b9e	-2.955972760031229
141	0xbfe94ade322d136a	-0.7903891544343484
142	0x3fe4be8930c3d182	0.6482587768974073
143	0x40030fa8686c05d0	2.382645431324569
144	0x3fed3fccad9a393d	0.9140380278275085
145	0xbf7ae342e87c8740	-0.006564389572106866
146	0xbfe6a9017f695770	-0.7081305969720528
147	0xbfef618b679a93ef	-0.9806572936546426
148	0x40041ddd3a30a883	2.5145821138476676
149	0x3ff0a7b760777a3b	1.040946366141397
150	0xbfccf099d8364764	-0.22609255845287202
151	0xbfd4f5d99783258d	-0.32750549121973266
152	0xbfefe2feaae18808	-0.9964593255538157
153	0x4000a18b5e3d4a46	2.0788791048483146
154	0xbfb1f302578ebd87	-0.07011427533756463
155	0x3fd6438277e81edb	0.34787046155586915
156	0xbff9fe98b50321f9	-1.6246573515692246
157	0x3fd34354080da69a	0.3009843901296364
158	0x3ffad98125e17abf	1.6781016807287157
159	0x3ff04b027f4baef1	1.0183129284368386
160	0xbff89997e7d4ac67	-1.5374983840836423
161	0xbfb926e00c06802b	-0.09824943822468472
162	0xbff197b84c181210	-1.0995409939215541
163	0x400c3d7be53a4cf3	3.530021468011563
164	0x3fc56889350eaa7a	0.16725268450439384
165	0xbfe3c19eee1deb16	-0.6173853541107259
166	0xc002667688db4cdb	-2.3000307743001094
167	0xbfef2b8b71630289	-0.974065515001784
168	0x40093f342f768db8	3.155861254506558
169	0x400164add0b546b3	2.1741596513100716
170	0xc00f332a380c3fe7	-3.8999828699816024
171	0x3fc9d2c31a49189e	0.20174444945786701
172	0xbff3edd6da7378e3	-1.2455662282223379
173	0x4001e6c7a40dfe90	2.237685472180438
174	0x400985ce7316d94f	3.1903351775501174
175	0xc00be7bff4a5b111	-3.488159095102795
176	0xbfeb871755165b7d	-0.8602406179296477
177	0x3fdce1b8a05d6413	0.4512769285261708
178	0xbff1ca23bf305b9d	-1.1118504970852208
179	0x3fd5235e803cc30a	0.3302837612455255
180	0xc005994e45ad075c	-2.69985632356922
181	0x3fe517bf649b9512	0.659148880481242
182	0x3ff9245a3e479cf8	1.5713751251985837
183	0x3fde02151cfc601c	0.4688771040978297
184	0x3ff61cb15c2bee2e	1.3820050812199827
185	0xc00d92caa2d4f42c	-3.696675560115656
186	0xbfeff97340fa821d	-0.9992004651176704
187	0x3fe7875681ba260c	0.7352707418187392
188	0x3ffdc888cebfff5d	1.8614585949107643
189	0x4001b15895c20ab3	2.211594743713556
190	0xc004154e4ec775f2	-2.510403266393717
191	0x3fd841acbd76e78d	0.3790084696043941
192	0xbff5f22e329700c7	-1.371626088730453
193	0xbffe3e94ede44798	-1.8902787487645352
194	0x3ff15ae1dade463f	1.0846880483189947
195	0xc004217daca99bb0	-2.516352986265211
196	0xbfe9a666beb1c8c7	-0.801562664461266
197	0xbfe563579e217419	-0.6683767403116035
198	0x3ff25dd7d9635e23	1.1479109279370128
199	0x3ffc088aa6e8ecd5	1.7520853538433603
200	0xc00335e0b064e2d4	-2.4013074665821055
201	0x3fe3b673c07d793b	0.6160219916890023
202	0xc001d78b026b3bfa	-2.2302456082320505
203	0x3ff1dbfeb9d1947f	1.1162097223798637
204	0x400b79cfed43d5ba	3.434478620178848
205	0xbff60cad57bb299b	-1.3780949999805674
206	0xbfc30a88bf4c12e1	-0.14875897732431212
207	0x3fb74dc7a4b045e9	0.0910305764266678
208	0x400daa42ef3ac233	3.7081354799086284
209	0x4001df7525bc1499	2.234110159685383
210	0xc004aefd18d7038b	-2.5854436817757622
211	0xbfeea68def3458c3	-0.9578313514673699
212	0xbff487a65f8ea2c9	-1.283117650289727
213	0x40012c64a90adf9d	2.1466763693278623
214	0x3fd78e53d1830c5f	0.36806197605273455
215	0xbffc4f8f59b32f6f	-1.7694238189605718
216	0x3fd0465cdf2d8ac5	0.25429460329739256
217	0x3fb10cbca465be76	0.06660059941872895
218	0x4003c36586c52810	2.4704084900777232
219	0x3ff109823c9aeee8	1.064821469058126
220	0xbfff042e3ecdd2ec	-1.9385206654816853
221	0xc00454ad5ab70244	-2.541346272191989
222	0x3fd06e8089e1035b	0.25674451317541064
223	0x3ff130c2e37eef7c	1.074404610305435
224	0x3fc96f4876b6f542	0.1987085895215533
225	0xbff0061d22beedd2	-1.0014926297434283
226	0xbfe4d8dfbfe5212f	-0.6514738796186402
227	0x3fd3130dc5c59739	0.29803795159965635
228	0x400004d13507a93f	2.0023521559679973
229	0x3fd36cca527cfa2d	0.3035150342510942
230	0xbfda636c2960c6a8	-0.41231826821158757
231	0x40033ad9db818c32	2.4037358426008035
232	0xbff568b9ff409749	-1.3380680056374834
233	0x400b4406e36cca40	3.4082162635397992
234	0x3fc11c77dd47aa7d	0.13368128113446068
235	0xc002edce935abb14	-2.36611666794432
236	0x3fe0a63fa7d2415f	0.5202940252075158
237	0xbfec414eb27bdadf	-0.8829720960628399
238	0x3ffdae3b3d973356	1.8550369649776335
239	0x3fd536e4c114cc97	0.33147543769445903
240	0xbff14b48b10dac11	-1.0808798710011198
241	0xbfca1dc30891726f	-0.20403325956694426
242	0xbfe698fc2f80ba53	-0.7061749389448074
243	0x401130f3739948a3	4.297803693991372
244	0xbfd5d74abc49e187	-0.34126537692602493
245	0xc005fc2d47d5abdf	-2.7481332408983543
246	0xc0035ebf593fc1ce	-2.4212634060461147
247	0x40032ce43e1f5fd7	2.3969197133373927
248	0x3ffd31c3d01b5b29	1.8246496323751649
249	0x3fe4eb766fe0f1ba	0.6537429986124643
250	0xbff1e98b0e9febc9	-1.119517380836202
251	0xbfff603bbb072afd	-1.9609944635182608
252	0x3fd0335d3502b2fe	0.2531350152665225
253	0x3ffa1078c9423847	1.6290214406649441
254	0x3fea5be7072ac85a	0.8237185611708455
255	0xbff40e8714a99d43	-1.2535467917567338
